…
│ (BatchNormalizatio… │ 32)               │            │                   │
├─────────────────────┼───────────────────┼────────────┼───────────────────┤
│ add_1 (Add)         │ (None, 16, 16,    │          0 │ conv2d_5[0][0],   │
│                     │ 32)               │            │ batch_normalizat… │
├─────────────────────┼───────────────────┼────────────┼───────────────────┤
│ activation_4        │ (None, 16, 16,    │          0 │ add_1[0][0]       │
│ (Activation)        │ 32)               │            │                   │
├─────────────────────┼───────────────────┼────────────┼───────────────────┤
│ conv2d_6 (Conv2D)   │ (None, 8, 8, 64)  │     18,496 │ activation_4[0][… │
├─────────────────────┼───────────────────┼────────────┼───────────────────┤
│ batch_normalizatio… │ (None, 8, 8, 64)  │        256 │ conv2d_6[0][0]    │
│ (BatchNormalizatio… │                   │            │                   │
├─────────────────────┼───────────────────┼────────────┼───────────────────┤
│ activation_5        │ (None, 8, 8, 64)  │          0 │ batch_normalizat… │
│ (Activation)        │                   │            │                   │
├─────────────────────┼───────────────────┼────────────┼───────────────────┤
│ conv2d_7 (Conv2D)   │ (None, 8, 8, 64)  │     36,928 │ activation_5[0][… │
├─────────────────────┼───────────────────┼────────────┼───────────────────┤
│ conv2d_8 (Conv2D)   │ (None, 8, 8, 64)  │      2,112 │ activation_4[0][… │
├─────────────────────┼───────────────────┼────────────┼───────────────────┤
│ batch_normalizatio… │ (None, 8, 8, 64)  │        256 │ conv2d_7[0][0]    │
│ (BatchNormalizatio… │                   │            │                   │
├─────────────────────┼───────────────────┼────────────┼───────────────────┤
│ add_2 (Add)         │ (None, 8, 8, 64)  │          0 │ conv2d_8[0][0],   │
│                     │                   │            │ batch_normalizat… │
├─────────────────────┼───────────────────┼────────────┼───────────────────┤
│ activation_6        │ (None, 8, 8, 64)  │          0 │ add_2[0][0]       │
│ (Activation)        │                   │            │                   │
├─────────────────────┼───────────────────┼────────────┼───────────────────┤
│ average_pooling2d   │ (None, 1, 1, 64)  │          0 │ activation_6[0][… │
│ (AveragePooling2D)  │                   │            │                   │
├─────────────────────┼───────────────────┼────────────┼───────────────────┤
│ flatten (Flatten)   │ (None, 64)        │          0 │ average_pooling2… │
├─────────────────────┼───────────────────┼────────────┼───────────────────┤
│ dense (Dense)       │ (None, 10)        │        650 │ flatten[0][0]     │
└─────────────────────┴───────────────────┴────────────┴───────────────────┘
 Total params: 78,666 (307.29 KB)
 Trainable params: 78,186 (305.41 KB)
 Non-trainable params: 480 (1.88 KB)
Learning rate = 0.001000
Epoch 1/500
1563/1563 - 26s - 16ms/step - accuracy: 0.4592 - loss: 1.5603 - learning_rate: 1.0000e-03
Learning rate = 0.000990
Epoch 2/500
1563/1563 - 16s - 10ms/step - accuracy: 0.5828 - loss: 1.2419 - learning_rate: 9.9000e-04
…
